…
        "model.add(tf.keras.layers.Dropout(0.2))\n",
        "\n",
        "model.add(tf.keras.layers.Dense(units=1))\n",
        "\n",
        "model.summary()"
      ],
      "execution_count": null,
      "outputs": [
        {
          "output_type": "stream",
          "name": "stdout",
          "text": [
            "Model: \"sequential_4\"\n",
            "_________________________________________________________________\n",
            " Layer (type)                Output Shape              Param #   \n",
            "=================================================================\n",
            " lstm_16 (LSTM)              (None, 60, 50)            10400     \n",
            "                                                                 \n",
            " dropout_16 (Dropout)        (None, 60, 50)            0         \n",
            "                                                                 \n",
            " lstm_17 (LSTM)              (None, 60, 50)            20200     \n",
            "                                                                 \n",
            " dropout_17 (Dropout)        (None, 60, 50)            0         \n",
            "                                                                 \n",
            " lstm_18 (LSTM)              (None, 60, 50)            20200     \n",
            "                                                                 \n",
            " dropout_18 (Dropout)        (None, 60, 50)            0         \n",
            "                                                                 \n",
            " lstm_19 (LSTM)              (None, 50)                20200     \n",
            "                                                                 \n",
            " dropout_19 (Dropout)        (None, 50)                0         \n",
            "                                                                 \n",
            " dense_4 (Dense)             (None, 1)                 51        \n",
            "                                                                 \n",
            "=================================================================\n",
            "Total params: 71,051\n",
            "Trainable params: 71,051\n",
            "Non-trainable params: 0\n",
            "_________________________________________________________________\n"
          ]
        }
…
